graphsage_trained_model.pth (torch, 831756 bytes, 9 tensors)

convs.0.lin_l.weight f4 [256, 100]
00000000: f5bc 0f3e 3fa9 b4bd 2c71 55be ee3b e93c
00000010: 1b38 323c 7f5f 77be 9e87 86be 0830 b13d
00000020: c3df 3fbb 2b97 9e3d bd92 8cbe f7a8 3a3b
00000030: 3f75 933e df74 d73e 7b9b 8ebc 9d07 b03d
00000040: c519 93be ca31 94bc 721b 9cbe 8cb4 81bd
00000050: 8328 83bd 5ebb 34bd e4a7 613e d2e6 393e
00000060: 1b2b 66be ad99 b63b 040a 14bd 59f3 4bbd
00000070: 00dd b83d adfa e9be 59df b6bd 28c5 54bc
00000080: 79f7 d0bd 8997 eb3c a810 03be 4066 e1bd
00000090: 9c8e ad3d ebe3 9fbd 49b6 99bd 9988 fabd
000000a0: 09da 3c3e c84f bc3d e721 31be ad08 ac3c
000000b0: 0e4a a63d 0f2f d93c f1c6 753e aacc 96be
000000c0: 1abf 4f3e 0c34 10bb 950a 8cbd 0161 9c3c
000000d0: e93f afbd d412 023e c2c5 323e c27a aabe
000000e0: e1dc 663e a1df 4abe 7ea3 79bd 8c9f ca3d
000000f0: 4751 48be 199b 8dbd ee20 7cbe 5fda 08be
00000100: 164e 303f fc46 b1bd 6226 98bc fd98 12be
00000110: 2472 423c 851d 463e e9b6 1c3e 5827 12be
00000120: d12a 0fbe b0cb 113e 3bb5 1f3e 4bba d33d
00000130: b28f 013e 6888 ddbd 36dc 3fbc 0634 aabe
00000140: 99d4 a73c 139e a8bd 9cc5 13be 7cac a3bd
00000150: 67be 0dbd c7d7 a4bd 4068 d13d 4297 a63c
00000160: d6e0 103e 5d69 6f3e e9d2 af3b a27a eb3b
00000170: a51d 9fbe 0653 0d3e 0c81 78be d1b0 4f3e
00000180: 4baa a3bd 6c06 7d3b 3f6e 10bd 74ad 39bd
00000190: c12f 513d 1654 fabd 013a 35bd 7b2e f23c
000001a0: 5802 5fbe efe1 a63d 7772 06be 7af9 a6be
000001b0: fde5 6dbe 8173 25be 9972 1b3e c636 873d
000001c0: d1e5 833e e877 77be 243a 773e f636 413d
000001d0: 6539 263e 3171 2cbe 1a02 aabe a672 0f3e
000001e0: f9c5 0a3d 8777 a9bb 1530 dbbd bab8 17be
000001f0: 1949 c13c 2bb1 873e aa9a 8bbe 9c18 643e
00000200: fee3 153e 8889 2c3e e1f1 53be 8eb7 09be
00000210: 2a1a 07bd 2cfd 793d 9e02 993e 6e2c dd3e
00000220: 16ff 2bbe 8d1e 00be ddc3 9e3c d715 163f
00000230: c98f 3b3e 0553 413d 2fcd 873d 0a1e e2bd
00000240: 2af5 d43c 4e8b d13d 75cd dd3c 9d9d 363e
00000250: 6729 2cbc a213 1b3d 6367 05be 6b35 163d
00000260: cd80 22bd 10ad cf3d ac9b 083e 176b 11be
00000270: 5eb3 ffbb f3c2 ee3b 128e 54bd 4aa8 72bd
00000280: 019f b5bd e7be 503c 3c2e 3ebd 4c93 303e
00000290: d699 1ebe 465f 8f3d 9587 5bbc 9bc1 acbe
000002a0: 521e 323d a001 983e bfaa 14bd 4f5f 2f3d
000002b0: 1344 6ebe fa66 21be 0538 5f3c b17e 973d
000002c0: 7382 f4bd 22b3 fe3d b166 37be e4ab acbd
000002d0: 356f 3a3d 2da1 643d a054 1e3e 265d b1bd
000002e0: 229e be3d e8aa b93b cd8f a3be 4754 573e
000002f0: 424c 14be 5f96 e63c e832 00bd 4f0c 3bbc
00000300: 324c 0f3e fbc8 2e3e ef34 a23e f6ad 453d
00000310: 48d0 65be 1e05 003e 9fc1 883d 279d 40bd
00000320: 1f3c b2bd 4964 06be d200 9abd d82d 46bd
00000330: bf54 e5bc 8af2 b1bd 7759 3abe 08f2 b9be
00000340: 146e 83be f635 583e e980 06be 394f 89be
00000350: e7a6 f53e 7391 953e 1ed4 14be f79b e73c
00000360: 0511 3cbe d98e 1bbe 6693 b0bd 6039 b93e
00000370: 90dc cb3d a28e e2bd db37 c7bc 9712 5b3e
00000380: e032 c5bd f37b 98bd abab 613e 6110 c53d
00000390: 6f79 1d3d 748e 3ebe c046 473e ab1b ec3d
000003a0: e047 2b3e 2d80 91bc 083f 153e 490f 923e
000003b0: 48d8 4dbd 4374 313e 9469 993e 45ee 473d
000003c0: bc51 26be a25a 8a3c 87f7 713d 720b 28bc
000003d0: 66bd ebbc b001 643e a78c e8bd 722a 4b3d
000003e0: 2f6b 3a3e 6b86 4ebd 45ee 57be e3bb 50bd
000003f0: 5815 b43d 2ea0 5ebe fcad febd e2c3 1fbe
0.14036925 -0.08821344 -0.20843953 0.02847096 0.010877634 -0.24157523 -0.26275343 0.08651739
-0.002927766 0.07743677 -0.27455702 0.0028482059 0.2880039 0.42081353 -0.017408123 0.08595202
-0.28730598 -0.018090148 -0.3048969 -0.06333265 -0.06404211 -0.044124 0.22036701 0.18154457
-0.22477381 0.005572519 -0.036142364 -0.04979262 0.090265274 -0.45699063 -0.08929319 -0.012986459
-0.10203452 0.028758781 -0.12799323 -0.11005831 0.08474466 -0.07807144 -0.07505471 -0.12233085
0.18442549 0.091949046 -0.17298089 0.02100023 0.081195936 0.026511697 0.24001671 -0.2945302
0.20287743 -0.0022003679 -0.06837956 0.019089224 -0.08557112 0.12702495 0.17458251 -0.33296782
0.22545196 -0.1981187 -0.060946934 0.098937124 -0.19562255 -0.06914348 -0.24621937 -0.13364552
0.6886915 -0.08656117 -0.01857299 -0.14316173 0.011868034 0.19347198 0.1530415 -0.14272821
-0.13981177 0.14237857 0.15596478 0.10338267 0.12652472 -0.10817033 -0.011710217 -0.33242816
0.020487117 -0.08233275 -0.1443085 -0.07991883 -0.03460541 -0.08048969 0.10224962 0.020335797
0.14148268 0.23380037 0.0053657186 0.00718625 -0.31077304 0.13801202 -0.24267977 0.20282294
-0.07991465 0.0038608564 -0.03526139 -0.045331433 0.051070932 -0.12223069 -0.04424477 0.02956318
-0.21778238 0.08148562 -0.13129602 -0.3261221 -0.23232265 -0.16157342 0.15180434 0.06602244
0.25761274 -0.24166834 0.24143273 0.047171555 0.16232832 -0.16840054 -0.33204728 0.14008579
0.033880208 -0.0051717195 -0.1070253 -0.14816561 0.023594426 0.26502356 -0.27266437 0.22275013
0.14637753 0.16849339 -0.20697738 -0.13448927 -0.032983936 0.06103246 0.2988481 0.4319796
-0.16796526 -0.12511654 0.019380504 0.58627075 0.18316568 0.047198314 0.066309325 -0.11040886
0.02599581 0.102316484 0.027075509 0.17833562 -0.010507918 0.03786052 -0.1302772 0.036672037
-0.039673615 0.10140431 0.13340634 -0.14201008 -0.0078033647 0.0072864234 -0.0518933 -0.059242524
-0.08868218 0.012740827 -0.04643081 0.1724369 -0.15488371 0.07000594 -0.0133990245 -0.3374146
0.043485947 0.2968874 -0.03629565 0.042815503 -0.23268156 -0.15761939 0.013624196 0.07397211
-0.11938944 0.124365106 -0.17910267 -0.08431223 0.04551621 0.05581777 0.1546197 -0.08660345
0.09307505 0.0056661256 -0.3194565 0.21028243 -0.14482215 0.028147874 -0.031298548 -0.011416509
0.1399391 0.17068855 0.3168101 0.048261605 -0.22442734 0.12501952 0.06677555 -0.047024872
-0.087028734 -0.13124193 -0.07519688 -0.048383564 -0.027994512 -0.08688839 -0.1819819 -0.36317468
-0.2566992 0.21114334 -0.13135113 -0.26818255 0.479789 0.2921253 -0.14534041 0.028272612
-0.18365867 -0.15191211 -0.08621864 0.36176586 0.09954178 -0.11062361 -0.024318626 0.2139381
-0.09628844 -0.074455164 0.22038142 0.09622265 0.038445886 -0.18609029 0.19460583 0.11528715
0.16726637 -0.017761314 0.14574826 0.28527287 -0.05025509 0.17329507 0.29963362 0.048811216
-0.16242117 0.01688892 0.05907395 -0.010256635 -0.028776836 0.22266269 -0.11354952 0.049601026
0.1820495 -0.05042116 -0.21086986 -0.050960433 0.087931335 -0.21740791 -0.12435529 -0.15602067

convs.0.lin_l.bias f4 [256]
00000000: 2756 e1be 9f43 f2be 5b11 d63d 1bea 34be
00000010: c60c 133f c383 f3be 2dcc 4d3d 495b f7be
00000020: 47a8 21bf a02d 5dbe 9140 55bf d051 8abe
00000030: 9a95 19bf d9c9 0dbf c0ab 4fbe 9f97 22bf
00000040: fb20 403e 1846 1fbe 44c5 d5be b730 98be
00000050: 68b7 64be 19f2 d8be 19ff fdbd 0caf aebe
00000060: 88ee b93c d572 4abf 3176 cabe c6f7 dabe
00000070: 704e 293e 7052 51bf 19d2 c23e 3045 0dbe
00000080: 6098 8ebe e27d e6be 8313 b7be 45d3 b2be
00000090: 7b59 17be 292f 893e 5141 7fbe 3296 b7bd
000000a0: 0091 11be eda9 23be 207f bbbe e234 93be
000000b0: a3eb 35bf ff39 b2be 00b9 f9bd 3af6 93bd
000000c0: 4739 dfbe a073 2d3e 2a1a 32be 3510 c2bd
000000d0: a4d5 81bf fe94 17bf 978b f13c fc5d 993d
000000e0: 4d1c 89bf e250 b8be c1af 1bbd 9b3e babe
000000f0: 764a 43be 0ef4 2fbf 3657 1abe 238a 8bbc
00000100: a971 e5be 2cc5 26bf 93db fabe 0039 09bf
00000110: 3b0d 25be 4f8e d4be f196 60be 1bad 42be
00000120: 6469 cdbe 8f71 ffbe ac31 0abf b34d 5bbe
00000130: 3f03 91bd 5ddb d2be 9270 12bf d70f 3dbd
00000140: decd 13bf 800b a5be c942 ad3e 1185 ab3d
00000150: f157 f9be eafe a7be d8d4 babe 99f5 d3be
00000160: 6990 3ebf ba0f 1abf 6761 1dbf daa1 82be
00000170: 8ecf debe 976f 64be 22b6 3fbf 6a91 2ebf
00000180: 66e2 1abf a334 69bf 15ae 50bf 9aeb fcbd
00000190: 849e 35be c867 aabe e618 06bf 7d9b f03d
000001a0: 10d7 dbbe 0ea3 f1bd 10d1 fb3c c04f b7be
000001b0: d72e efbe 3316 803b ce8e cbbe 7c77 1abf
000001c0: f36b 91be b1b5 26be 314c 83be 216e 18bf
000001d0: e4cf 3fbe c0db 45be 10eb 803d 404b 0f3e
000001e0: 842e d0be b7e5 58be ee16 a2be 0b6b 08bf
000001f0: 4376 c53d e618 9ebe 69a2 bebe 1d3c 0e3d
00000200: 2fec e9bd 9c72 55be f0ff 12bf 5dac 503c
00000210: fb34 20be 8343 fbbe 25b9 1b3d 85a3 18bd
00000220: 7cc1 8bbe 5ae0 4ebf 92b8 943d fc21 12bf
00000230: 69a0 8cbd 64ca 883e 61e1 1fbb 9833 013e
00000240: 2ebc 68bd b816 31bf 8bbc 03be 67f0 35be
00000250: 4691 54bf a61f 63be 8247 463e e3c3 58be
00000260: b8ab ce3c e68d a0be 01a6 8ebe cf2a a3be
00000270: fa65 babe 280c 24bf a0c1 b4be 1329 44bf
00000280: 410a efbe faee b0bc 3571 fabd ed00 cfbe
00000290: 7bea cfbe 6804 bbbe 3e92 d3be 4e1d 3dbf
000002a0: 9215 3ebf 929f c0be 191f d3bd ba1b 97be
000002b0: fc4f 0bbf 93cd babe f6cc 00bf 9d10 93be
000002c0: d8e9 09bf b454 4fbf 33d4 58be b354 23bd
000002d0: 211c 0dbf fe52 1bbf e0b8 113d 3cdb 01bf
000002e0: d04f 15be e59b 0abf 47aa d73d 3673 f63c
000002f0: cd25 1fbf 3f62 e83c 3d1d 2cbf 8f33 dd3e
00000300: c4f5 3ebf 1c8f 87bf 249d 01bf 9a3c f0be
00000310: 7351 08be 9af4 8bbe 62d1 99be 1284 08bf
00000320: 3fd5 1fbf c5a9 d1be 236d 19be cf06 0bbf
00000330: 7ff1 c2be e603 39bf 7736 64bf 71a7 02bf
00000340: f4e5 0ebf 87be 67be 92bf 60be c37e b7be
00000350: fda0 babe 07e4 d7bd 3bf5 813b 92a8 2abe
00000360: 33a4 bd3d 4964 2bbe bb85 0fbe ba40 7bbe
00000370: 6bbb c4be 6555 3cbd d69e 61bf 916e a7be
00000380: da2f aabe 4fda cabe da9c e8bb ee74 e1bd
00000390: 4fb2 31be e8d3 05be afb7 13bf 22d0 bcbe
000003a0: c9c9 06bf b6f3 e4be 40ec d2bd e8c4 a2be
000003b0: 55bc d4be 1dc5 2fbe b3fc 12bf 7d57 39be
000003c0: 72f7 ddbe 6817 88be cdc1 5dbd 6a15 6f3e
000003d0: 6eff 39bc 375a 8dbe 3c46 81be 7dba 05bf
000003e0: 9bef 3a3d 4e88 283e 49e9 5abf 091c e4be
000003f0: 076d 67be 3fd6 4ebf ad62 81be 69f2 4cbe
-0.44011042 -0.47317216 0.10452529 -0.17667429 0.57441366 -0.47561464 0.050243545 -0.48311833
-0.63147396 -0.21599436 -0.83301646 -0.27015543 -0.599939 -0.5538612 -0.20280361 -0.63512605
0.18762581 -0.15554082 -0.41752064 -0.29724666 -0.22335589 -0.42372206 -0.12402172 -0.34117925
0.022696748 -0.7908147 -0.39543298 -0.4276716 0.16533828 -0.81766415 0.38050917 -0.13795924
-0.27850628 -0.45017916 -0.35757074 -0.3492681 -0.14780228 0.26793793 -0.2492726 -0.08964194
-0.1421547 -0.1598279 -0.36620426 -0.28751284 -0.7106268 -0.34809873 -0.12193489 -0.07224698
-0.43598387 0.16938639 -0.17392793 -0.094757475 -1.0143323 -0.5921172 0.029485507 0.07488629
-1.0711762 -0.3599921 -0.03800941 -0.3637589 -0.19071373 -0.6873177 -0.15072331 -0.017033642
-0.44813278 -0.6514461 -0.48995647 -0.536026 -0.16118328 -0.41514823 -0.2193258 -0.19011347
-0.4011947 -0.49891326 -0.53982043 -0.21416359 -0.07080697 -0.41182986 -0.5720302 -0.046157684
-0.57736003 -0.32235336 0.33840016 0.0837499 -0.48699906 -0.32811671 -0.36490512 -0.41398314
-0.744391 -0.60180247 -0.6147675 -0.25514108 -0.43517727 -0.22308193 -0.7488729 -0.68190634
-0.60501707 -0.9109594 -0.8151563 -0.12349625 -0.1773625 -0.33282304 -0.5238174 0.11748407
-0.42937517 -0.11798678 0.030739337 -0.35803032 -0.46715423 0.0039088964 -0.3975739 -0.6033857
-0.2840267 -0.16280247 -0.25644067 -0.59543043 -0.18731648 -0.19322109 0.062948346 0.1399355
-0.4066049 -0.2118138 -0.3165812 -0.53288335 0.09641697 -0.3087837 -0.37233284 0.034725297
-0.114220016 -0.20844501 -0.5742178 0.012736407 -0.1564521 -0.49074945 0.038018364 -0.03726532
-0.27296054 -0.80811083 0.072617665 -0.57083106 -0.06866533 0.26716912 -0.002439581 0.12617338
-0.056820087 -0.6917529 -0.12864892 -0.17767487 -0.8303417 -0.22180042 0.19363216 -0.21168475
0.025228366 -0.3135826 -0.27861026 -0.31868598 -0.36405927 -0.6408105 -0.35303974 -0.76625174
-0.4668751 -0.021598328 -0.12228624 -0.40430394 -0.40608582 -0.365268 -0.4132251 -0.7387284
-0.74251664 -0.37621742 -0.10308666 -0.2951334 -0.5441892 -0.36484966 -0.50312746 -0.28723612
-0.5387244 -0.8098862 -0.21174698 -0.039875697 -0.55121046 -0.6067351 0.0355767 -0.5072515
-0.14581227 -0.54144126 0.10530525 0.030084234 -0.62167054 0.02836716 -0.67232114 0.432034
-0.7459376 -1.0590549 -0.506304 -0.46921235 -0.1331232 -0.27335054 -0.3004256 -0.53326523
-0.6243476 -0.40949836 -0.14983039 -0.54307264 -0.38074872 -0.72271574 -0.89145607 -0.51036745
-0.5581963 -0.22631274 -0.21948078 -0.358389 -0.3645095 -0.1054154 0.0039660013 -0.16665867
0.09259834 -0.16737475 -0.14015858 -0.2453641 -0.3842424 -0.045979876 -0.8813299 -0.32701543
-0.33239633 -0.3961968 -0.0070987763 -0.11008631 -0.17353176 -0.13069117 -0.57702154 -0.36877543
-0.5265165 -0.44717187 -0.10298967 -0.31790853 -0.41549936 -0.17165036 -0.5741684 -0.1809978
-0.43352848 -0.26580358 -0.0541399 0.23348013 -0.011352403 -0.2760789 -0.25248897 -0.52237684
0.04563866 0.16458246 -0.85512215 -0.4455264 -0.22600184 -0.80795664 -0.25270596 -0.20014347

convs.0.lin_r.weight f4 [256, 100]
00000000: 59c0 353e 43a1 93bd 3543 54bd 3651 2b3c
00000010: 170a 7c3c f6f5 39be 7878 5ebe 04aa b63d
00000020: e5fd 1abe 8028 23bd 88af 3bbe a92c d5bd
00000030: 98ba 773e 07e3 9b3e 0834 2bbd f204 00bc
00000040: c463 83be fdbf 4cbe 6d9a 15be f709 8a3d
00000050: 86a5 13be 1736 26be 95e2 a93d 4f68 1c3e
00000060: 17fe cebd fa8f 55be 7a5f 8b3d 9662 d2bd
00000070: 579a 943d a59b 33be 8fae e8bd d973 8abe
00000080: 4132 e3bc 4b7f a63d c5ca 12bd f79c da3d
00000090: 93a1 f1bc fba0 cdbc 8bf4 533d cd35 e23c
000000a0: 2674 093e 9b9c ac3c 91a5 1fbe 1d3c a53b
000000b0: 416c 01bd 6157 36bd b19c 53bd 7f78 80be
000000c0: 90f2 3b3e 1f15 053e 96c2 f7bc 063c cabc
000000d0: 4892 8bbc bf28 703e ed6b 5d3c d791 19be
000000e0: 7b3f 263e 6e90 17be 679c 1c3e b07f 22bc
000000f0: ad57 09be 5e73 abbd 7674 e6bd da64 d73b
00000100: 362c a23e 4beb 7abd 2688 803d bd15 8b3d
00000110: b236 cdbd 8395 193e f48c f63d bd07 0bbe
00000120: 4564 70bd 8ca5 493d b4d7 473e cb27 903d
00000130: 863d 183e 4b9b 91bd 361d 2c3e 5435 cebd
00000140: 7de7 f6bd 9cdc 5e3d 5395 0d3e e8d9 b5bd
00000150: 6ea6 f63d 34b6 b9bd 0ddf f63d c396 bebd
00000160: 4cc6 3d3e 3d6f 033e a770 513c 189f eabd
00000170: 8b3d 6abe 9ab1 bc3d 0776 c1be 7d51 fc3d
00000180: 9fd9 d8bd 3015 0e3e 73ca eabd 01fc ef3c
00000190: 0d1a a5bd 38f2 1abe 8607 923d c9fa c93b
000001a0: 2a54 9cbd 80c9 f83c fc45 debd 213f 8dbe
000001b0: 52c8 d4bd 1c19 723c 75fe a03d 59d1 f83d
000001c0: 1bd0 a33e 6b18 29be be1d 8b3e 8c85 2e3e
000001d0: dd2a 093e 31d9 f1bd aeec 78bd 98da 533e
000001e0: 8e4b 593d b38f 44bb ad8f 08bc 8808 02bd
000001f0: 03bc 76be 89a6 8e3e 1675 edbd 6b6a 6a3c
00000200: b739 2b3e 1aa9 32bd c999 81be 1768 a5bd
00000210: 2a3f f6bd ca05 073d d3de 483e 437a 243e
00000220: 4458 60bd 9daa e6bd 8838 af3b 2665 8c3e
00000230: f4eb 953d 4c53 fd3d 6b72 103e 7935 00be
00000240: 7837 083e 13c3 f83d 33e3 2bbd 4d25 d13d
00000250: bc89 98b9 cad2 fc3c 02ad a6bd b404 1cbc
00000260: 5f49 323e cd36 a93e e972 bf3c fe7d e83a
00000270: a7ad 25bd 6029 843d 2c2c 423d 8ee8 a9bd
00000280: b76f b3bd eeac 73bd 0e4d 123d 8ef5 c63d
00000290: 1952 fdbd 78f0 153e 1bd2 05be daaf 46be
000002a0: e323 a33d b206 703d aca3 cb3d 2982 9bbd
000002b0: 8134 fd3c 58ab 64be 4bbd 2ebd 5529 7fbc
000002c0: 618f 51be 8221 b03d 7311 06be 2eac 27bc
000002d0: 1608 bbbd 305f b73d 5f0b b93d c6ad 883c
000002e0: 748a 3e3d 533b cfbd 2df8 53be c70f 4a3e
000002f0: 2ae0 ccbd d2a2 debc 48f1 853d d189 7f3d
00000300: 502b 833c fc19 3e3e 724f 9b3d 6e90 8a3d
00000310: c1a9 8abe 3b88 ec3d c381 cb3d 61af b7bd
00000320: f920 8fbd 9e59 7f3d b3e8 e2bd 346c 64bd
00000330: fc4c e03d 0701 07be cd64 9fbd 1776 adbb
00000340: 91eb 10be eebe 153d 83e1 a93b 6dfa ae3b
00000350: a3d8 193d e880 a63e 2791 46bd 8aed 6a3e
00000360: 98c0 40bd c7e9 41bd 92fd 9f3d 18c9 423e
00000370: bb6e 5a3d afac 8cbe 75f8 99bd cec8 933d
00000380: 96ea 423c 97ef 1abe 019e 143e f380 06bd
00000390: 6bcb 42be e2e3 89bd ad86 c13d 398e 863e
000003a0: 39fe 6a3e 30dd 213d 14b1 ff3d 9734 1e3e
000003b0: 278c 06bd 3e7a 8b3d 2356 773e 0d59 5f3d
000003c0: 4adb 94be ce84 0f3c fcd2 983d 03b1 c8bc
000003d0: 664d 87bd aaf0 403d fac1 84bd 0f06 213d
000003e0: 9e43 a23d f6e9 bebd 0fb1 bebd e33e 12be
000003f0: 718b 0b3e 790b 2bbe 2c02 203e 5dd4 9cbd
0.17749156 -0.072084926 -0.051821906 0.010456374 0.015383265 -0.18160233 -0.21725643 0.08919147
-0.15135916 -0.039833546 -0.18328679 -0.10408909 0.24192274 0.30446646 -0.041797668 -0.007813679
-0.25662053 -0.19995113 -0.1460969 0.06740182 -0.14418611 -0.16231571 0.0829517 0.15274166
-0.101070575 -0.20855704 0.0680532 -0.1027271 0.072560005 -0.17539842 -0.113614194 -0.2704151
-0.027733924 0.08129748 -0.035837907 0.1067447 -0.02949599 -0.025101176 0.051746886 0.027613545
0.13423213 0.021070769 -0.15590502 0.0050425665 -0.03159738 -0.044516925 -0.051663104 -0.2509193
0.18354249 0.12996338 -0.030244153 -0.024686825 -0.017037526 0.23453043 0.013514501 -0.1499704
0.16235153 -0.1480119 0.15294038 -0.009918138 -0.13412352 -0.08371614 -0.11252682 0.0065733017
0.31674355 -0.06125955 0.06275968 0.067912556 -0.10020198 0.1499844 0.120386034 -0.1357717
-0.058689374 0.049230143 0.19515878 0.0703884 0.1486722 -0.07109698 0.16808018 -0.10068765
-0.12055872 0.05440961 0.13826494 -0.08879453 0.12043463 -0.090679556 0.12054262 -0.09306099
0.18532676 0.12835403 0.012783206 -0.11456126 -0.2287504 0.09213562 -0.3778536 0.1232023
-0.10588383 0.1387527 -0.114643954 0.02929497 -0.080616094 -0.15131462 0.07130341 0.006163929
-0.076332405 0.03036952 -0.10853192 -0.27587226 -0.103897706 0.014776494 0.07861034 0.12149305
0.3199471 -0.16513221 0.2717113 0.17043132 0.13395257 -0.11809004 -0.06077259 0.20688856
0.05305057 -0.0029992878 -0.008335036 -0.031746417 -0.24095158 0.2786143 -0.11594598 0.014307599
0.16721235 -0.0436183 -0.2531264 -0.08076494 -0.12023766 0.032964505 0.1961625 0.16062264
-0.054771677 -0.11263011 0.005347315 0.2742092 0.07320395 0.12369403 0.14106147 -0.12520398
0.1330241 0.121465825 -0.04196472 0.10212193 -0.0002909432 0.03086223 -0.08138467 -0.009522606
0.17410801 0.33049622 0.023370223 0.0017737744 -0.04044881 0.06453204 0.047405407 -0.082963094
-0.08761542 -0.05949109 0.035718016 0.097148046 -0.123691745 0.14642513 -0.1306843 -0.1940302
0.07965829 0.058600135 0.09943327 -0.075931855 0.030908825 -0.22330987 -0.042660993 -0.015573819
-0.20464851 0.08600141 -0.13092594 -0.010233922 -0.09132402 0.089537024 0.09035372 0.016684424
0.046518758 -0.10118737 -0.2070014 0.19732581 -0.100036934 -0.027177248 0.06540161 0.06238729
0.016011864 0.185646 0.07583512 0.06765829 -0.27082637 0.115494214 0.099368595 -0.08968998
-0.06988711 0.062341325 -0.1107954 -0.055767253 0.109521836 -0.13183986 -0.07782898 -0.0052936184
-0.14152361 0.036559038 0.005184354 0.0053399117 0.037560116 0.32520223 -0.04847827 0.22942176
-0.04705867 -0.047342088 0.078120366 0.19022024 0.053328257 -0.27475497 -0.075180925 0.07216035
0.01189675 -0.15130459 0.14513399 -0.03283782 -0.1902291 -0.06732918 0.094495155 0.26280382
0.22948541 0.03951758 0.12484947 0.15449749 -0.032848503 0.06810425 0.24153952 0.054528285
-0.29073554 0.00875969 0.07462117 -0.024498468 -0.066065595 0.047104515 -0.064823106 0.03931242
0.07923053 -0.09321968 -0.09311115 -0.14281802 0.13627411 -0.16703595 0.15625829 -0.076576926

convs.1.lin_l.weight f4 [256, 256]
00000000: 6937 1f3e c019 0d3d 39b3 93bc 0930 03be
00000010: bba8 99bd fcae 093d cfcf 1cbe 8548 25be
00000020: 4007 84bd ba1b ea3d 7655 f83d 423b 02be
00000030: 56c2 62bd 3fc8 11be 4ba8 72be 7002 17be
00000040: c3cd 7fbd b549 14be f110 b2be ffa0 cf3d
00000050: f851 b7bc ad00 76be a3fe fbbd 925d c2bd
00000060: 7b5d f43c b02c 42bd a140 393c 5ab1 963d
00000070: b04c 35be 9c4f 453d 78bf 1abe ca82 99bd
00000080: df36 953d ea9c 03be dc36 b73d 9dce 153e
00000090: 69ce 16bc c103 6fbc fcff c1bd 8db4 153d
000000a0: c50a 38be d411 a63d 6c28 803d 2e45 743c
000000b0: b6b6 ecbd c22c 11be 44c9 053c ff50 c8bc
000000c0: d431 f9bc 0fd0 08bd 4673 ffba 2fda b9bd
000000d0: 2a79 32be 3af9 40bd f38a 8dbd d2d7 fabd
000000e0: 1d6e 483d 7f51 863d 8994 42be bced e43d
000000f0: 0150 f4bd 6d2c 47be 9ee0 67be 2e2a 27be
00000100: f939 babc 163e 1ebe 0b12 8bbd 705b 48bd
00000110: 553b 20be f833 a9be e3cb febd 3639 9cbd
00000120: 7466 413d 7e74 a8bd 66ca 303e 4c1c 48bd
00000130: f433 85be 6ac6 52be 8748 d0bd 5903 303e
00000140: 9930 ad3d 9cdd 8cbd d206 07bd b6a1 34be
00000150: 7a52 aa3c 5547 29be 6fd8 3dbe f588 84bc
00000160: b6bd 41be e92b e63d c182 3f3c 6c70 c4bb
00000170: f4ff 2fbe 34a7 41be 979b 443d 4811 013c
00000180: cf02 c83d 94e8 413e 758c 35bd 064a 62be
00000190: fbfa 0ebe e9ca 7abe bd8a 2fbe 26fc 7abd
000001a0: 4260 d83d 5686 cdbd 7411 903a 4235 993d
000001b0: 8348 22be d25b 67be e78c 74be 9dfd 713c
000001c0: 7b60 debd f30f f9bd 6c03 42bd 8f83 1c3e
000001d0: cdfa 803e c3e8 1c3d 5a55 ff3d e638 ddbd
000001e0: c860 7fbd 63f6 28be 9e98 f83c d320 a2bd
000001f0: 3b1d 88bd 9053 52bd 71e6 0c3d 3686 a7bd
00000200: 4db8 3b3e aa1f 27be a2f3 7cbd 6f6c e6bd
00000210: 0ce1 4f3d b497 8abe e4d7 42be 4479 aabd
00000220: 2492 c0bd 7574 bcbe 64e8 4ebd 5040 cd3d
00000230: 5b19 77be 2f7c b4bc 99d4 6fbd b8ab 8fbb
00000240: c58e 34be cd1a 193e 347c 0abe ead1 22bd
00000250: 4374 f0bd b3b5 c03c 7b01 34be d259 5ebd
00000260: 278d 1cbe a662 e1bd 6647 14bd 7389 8f3e
00000270: 1dd0 2c3c 8d37 e0bc 25ee babd 08ef c7bd
00000280: e276 683d 7266 40be fcf6 a23d ce6f 113e
00000290: c4c6 91bd 0c83 783e 5f84 9cbc f88e 1c3d
000002a0: 5ab1 f83d e123 e43d ab24 07be 27d4 efbd
000002b0: 4d76 3fbd 686b fabd 92d5 323d 5df8 72bc
000002c0: 314f 773d 9e20 dbbc 0cf6 8fbe e63b 1abd
000002d0: 7a4e a63d bdd6 cebd 5127 aebd 77cd 983d
000002e0: 8bc3 8dbd 9863 c9bd 7f3f b4bd e28c 48bc
000002f0: 1a04 41be 752d c73d 4c97 4abe 9816 d9bd
00000300: afa7 7dbd f425 20be d360 3dbe f8c9 06bd
00000310: 2ada 01be fe85 27bd cc28 82bd 722c 9d3d
00000320: 6988 39be d769 92bd 0fcf 29be 40bd a3bd
00000330: 572a a0bd 8cac e23d 7e6f f6bd a07b 873d
00000340: 3f68 57bd 218d 943c c27d 62be 4adc 11be
00000350: 22e3 453d 060e 23be 4d34 973d 10b5 1bbc
00000360: afd8 1fbe 6c5e 113b 4fa7 a7bd 6db5 36bd
00000370: 6a6b 343e a43d 1ebe 95f8 14be 0b2c 303e
00000380: 5d62 8dbc 2e4f 483e 2ac8 7ebd 35b4 f4bd
00000390: 7aec fa39 3b21 40be edbf debc 7681 f83d
000003a0: 9b58 0abe 07c1 51bc 13ac f7bd b1c4 063d
000003b0: 1982 ec3d fae2 02be 9d55 a4bd 2a99 6ebd
000003c0: 0889 d0bd 9e5e 473b afbf 2dbd 1e97 e8bd
000003d0: 2848 18bd d9a0 35be 182b 473e da21 a93d
000003e0: f161 873d f4f7 02be b683 c1bd 35fb 0f3e
000003f0: 9119 43be ac38 e8bd 0544 9b3d 9806 8d3c
0.15548481 0.034448385 -0.018029796 -0.12811293 -0.07502886 0.033614144 -0.15313648 -0.16140945
-0.06446695 0.1143107 0.121256754 -0.12717918 -0.055361114 -0.14236544 -0.23697011 -0.14747024
-0.06245209 -0.14481242 -0.3477855 0.101381294 -0.022377953 -0.24023695 -0.123044275 -0.09490503
0.029829731 -0.0474059 0.011306913 0.07358046 -0.17705035 0.048171625 -0.15112102 -0.07495649
0.072858565 -0.12852827 0.089460105 0.14629598 -0.009204485 -0.014588297 -0.09472653 0.03654914
-0.17972858 0.08108869 0.0625771 0.014909072 -0.11558287 -0.1417723 0.008165661 -0.024452684
-0.030419268 -0.033401545 -0.001948931 -0.09074818 -0.17429033 -0.04711268 -0.06911268 -0.12248196
0.048933137 0.06558513 -0.19001974 0.11178157 -0.11929322 -0.19450541 -0.22644278 -0.16324684
-0.022732722 -0.15453371 -0.06790551 -0.048915327 -0.15647633 -0.33047462 -0.12441232 -0.076280996
0.047216848 -0.08225344 0.17264709 -0.04885511 -0.260162 -0.20583501 -0.101700835 0.17188777
0.08456535 -0.06878206 -0.03296549 -0.17639813 0.020791281 -0.16531117 -0.18539594 -0.016178587
-0.18920025 0.11238844 0.011688889 -0.005994847 -0.17187482 -0.18911439 0.047999945 0.007877655
0.09766161 0.18936378 -0.044323403 -0.2209855 -0.13962929 -0.24491467 -0.17142768 -0.061275624
0.10565235 -0.10035388 0.001099153 0.07480861 -0.15847974 -0.2259362 -0.23881875 0.014769939
-0.10858246 -0.12161245 -0.047366545 0.1528456 0.25191346 0.038307916 0.124674514 -0.10801868
-0.062348157 -0.16500239 0.030346211 -0.07916417 -0.066462 -0.051349223 0.034399454 -0.081798956
0.18332024 -0.16320673 -0.061755784 -0.11251151 0.05075173 -0.27068865 -0.19027668 -0.08323911
-0.09402874 -0.368076 -0.050514594 0.10022032 -0.24130766 -0.022031872 -0.05855236 -0.004384484
-0.17632587 0.1495163 -0.13523942 -0.03975097 -0.11740925 0.023524141 -0.1757869 -0.054284878
-0.1528822 -0.11005144 -0.036200903 0.28034553 0.010547665 -0.027370239 -0.09127454 -0.097623885
0.056754 -0.1878908 0.07957265 0.14202806 -0.0711799 0.2426874 -0.019106088 0.038222283
0.12143202 0.11139656 -0.13197581 -0.11710387 -0.04674368 -0.12227517 0.043660708 -0.014829722
0.060378257 -0.026748952 -0.28117406 -0.03765478 0.08120437 -0.10099552 -0.08503593 0.07461064
-0.069220625 -0.09833449 -0.088011734 -0.01224062 -0.18849221 0.09725467 -0.19784278 -0.106000125
-0.061927494 -0.15639478 -0.18493967 -0.032907456 -0.12680879 -0.04089927 -0.06355438 0.07674493
-0.18118443 -0.071490936 -0.16582893 -0.07995081 -0.07820576 0.11068067 -0.12032984 0.066153765
-0.05258965 0.018133702 -0.22118285 -0.1424419 0.048312314 -0.15923318 0.073830225 -0.009503618
-0.15610002 0.0022181524 -0.081862085 -0.044606615 0.176191 -0.15453202 -0.14547952 0.17204301
-0.017258817 0.19561455 -0.06220261 -0.11948434 0.00047859905 -0.18762676 -0.027191127 0.12134068
-0.13510363 -0.012802369 -0.120933674 0.032902423 0.11548252 -0.12781897 -0.08024142 -0.058251537
-0.10182387 0.0030421386 -0.04241913 -0.11356948 -0.03717819 -0.1773714 0.19450033 0.0825841
0.06610478 -0.12789899 -0.0944895 0.14060672 -0.19052722 -0.11338934 0.07581333 0.017215058

convs.1.lin_l.bias f4 [256]
00000000: e76a a6bd 9f9d cc3e 4b0f cbbd 6c14 743d
00000010: b6e2 853e 3257 b83d 371f 053c e6ad 0b3f
00000020: b539 b43e 2604 6b3e 4e6d 963e 8a1b b93e
00000030: 4c58 c93e 7f63 cb3e 75ce 753e ef38 da3e
00000040: d4d8 013f bf72 20be 9edc a73e 030e 4c3b
00000050: 6c7b 0c3f d840 553e 5633 323e 6382 2d3e
00000060: 7485 993e cf00 9c3e 25c7 f9bd 0fc0 f0bd
00000070: eb8b 663b 2e38 89bd 0a71 d8bd e7e5 c7bd
00000080: 8424 9d3e 1d1b bb3e d0ff bc3e 916d 813e
00000090: d369 723e 78b3 863b c12f 90bd dd9e 1f3e
000000a0: 7c64 343f 1eca cd3e 9f1d 0f3f 3889 fa3e
000000b0: 31e0 28bd 5108 81bd a2d8 b63e f93e a13e
000000c0: 0fed 143f 22f6 f53c e26f a43e 75c5 fa3e
000000d0: f97f 133f 1b4d 8e3e 531c b13e 9179 9cbd
000000e0: 6686 873d 0d08 603c 6770 e43e 25de 78bd
000000f0: a12e 8c3e 5247 02bd be9a 973e 36d1 153f
00000100: cd19 5b3e 4c38 df3e 9692 2bbe eacd 483e
00000110: 7537 b7bc 6aec c93e d853 e73e b6dd 503d
00000120: b8d2 7f3d 713e 80bd 231a 2c3e 93ce 773e
00000130: 1930 e2bd 8d66 993e f445 bb3e dbf2 203d
00000140: e474 49bd 75cf 9cbd fd32 103e 0ab9 39bd
00000150: 8a1c 98bd f281 923f 38e1 bf3e a34b a13e
00000160: a067 8a3e f211 abbd 4788 c33b ffde 6a3d
00000170: 10f8 753e fbe7 ff3e 4eee 8e3e afaf b93e
00000180: 4d8b 6cbd d943 06be 7c42 623e 8ff2 ab3d
00000190: 3cbc de3e 4c0d ed3e 8877 073d 6889 8dbd
000001a0: e8a9 f6bd d9f6 a43e aa9d 4f3e a631 0dbd
000001b0: 0d69 793e 3217 d43d b257 d13e 3381 393e
000001c0: e1bf ad3e 93b4 493e acc6 a83e 250e 0d3e
000001d0: 04e0 a23e baec e93e e495 793e afed 4e3e
000001e0: 0bc3 43bd 2c44 0d3f 8054 ce3e f8b8 063e
000001f0: dce2 b6bd 9447 863e 2cc3 28bd f106 b53d
00000200: 3ad5 fc3d e54f 3bbe b555 eb3e ce43 803e
00000210: ccdd 013f 6549 cebd e1ff d43e 199e 833e
00000220: 3cf2 753e b3c9 3d3e f680 af3e 8adc fcbc
00000230: 9a78 84bc 6073 263e b55d ec3e 2c03 f63c
00000240: 2711 d23e d6b9 94bc 6da9 2d3e 3814 573e
00000250: 1b07 783e bbbb bfbd 2cc4 053f b06e 113e
00000260: 9e37 e63e 0405 be3e 4c56 a33e 7dbd 92bc
00000270: 6a2d 97ba c527 843e 6d96 8d3d 5ac4 46bc
00000280: 2bfa ac3e 66ef 003f f474 fb3e 97cb 723e
00000290: 016f 673b b932 023c b901 d23e 67ef dabd
000002a0: afa4 1e3f 88ec b83e 0fbb e03e ea44 1a3f
000002b0: d819 a9bd fbf0 fb3e 8e7b 0cbe 451a 913e
000002c0: 5b07 d03d a1c3 f43d ab70 b7bc 317a 983e
000002d0: ea03 893e 9bda b63e d55a e83d bf7e c13e
000002e0: e2e3 b63e ef19 943d e609 5a3d 994a cb3e
000002f0: a917 793e 0667 033f 1109 2e3e 19a7 af3e
00000300: 3e39 4abd c766 fb3e 98a2 a03e 51c2 ab3e
00000310: c70f 63bc 47fc 6b3e bd0c d83d 8f77 1d3e
00000320: 30f9 c73e 74d7 283e 9a6d 893e 6270 ab3e
00000330: ca8d b2bd 2c5c 593e c0cb ee3e 6484 13bd
00000340: 1798 d13e 4b3f a93e 9e56 c43e c50b df3e
00000350: 00bf 4e3e 2e7f b53e 1082 783e 2dad 8d3e
00000360: d6f7 90bd 53ab 1b3e 4303 a33e c447 d13e
00000370: adb6 db3e dcc2 a83e 798a b0bd 1241 d7bd
00000380: 1aa3 fcbd 8801 dd3e 2a2f aa3e 17e5 b2bd
00000390: cf93 02bd e639 a93e b3f0 0f3f 6171 31bb
000003a0: d0ee 893e cd8a b33e f43f 2d3e cf7b a73e
000003b0: fcd4 f43e c364 84bd 4651 1d3e 7c0d 4ebe
000003c0: 7a1b cf3e 9442 833e d3dc 513e 6804 063e
000003d0: 9a5a 6a3e 83eb 9fbd 9055 ff3e ea65 9fbd
000003e0: 0425 5c3e c252 513c f644 e43e c75c 42be
000003f0: b97e 3b3e 60f0 0a3f 28ac fd3d f63e f83c
-0.08125859 0.39964005 -0.09915026 0.05958979 0.2614953 0.09001006 0.008125118 0.5456222
0.35200277 0.22950801 0.29380268 0.36153823 0.39325178 0.39724347 0.24004538 0.42621562
0.5072148 -0.15668772 0.32785505 0.0031136281 0.54875827 0.20825517 0.17402396 0.1694427
0.2998463 0.30469367 -0.12196187 -0.11755382 0.0035178612 -0.067001686 -0.105684355 -0.09760647
0.30691922 0.36544123 0.3691392 0.25278905 0.23673181 0.00411075 -0.07040358 0.15587945
0.70465827 0.40193266 0.55904573 0.48932815 -0.04122943 -0.06300414 0.35712153 0.31493357
0.5817422 0.030024592 0.3211661 0.48978773 0.57617146 0.27793202 0.34591922 -0.076403745
0.06617431 0.013673794 0.44617006 -0.06075873 0.27379325 -0.031806298 0.29610246 0.58522356
0.21396561 0.4359764 -0.16755137 0.196098 -0.022365311 0.39438182 0.45181155 0.05099269
0.062456816 -0.0626191 0.16806845 0.24199896 -0.1104433 0.29961053 0.36576807 0.039294105
-0.04918374 -0.07656757 0.1408195 -0.045342483 -0.074273184 1.1445906 0.37476516 0.3150302
0.27032185 -0.08353032 0.0059671733 0.057341572 0.2402041 0.49981675 0.27916187 0.36266848
-0.057750035 -0.1311182 0.22095674 0.08395874 0.43502986 0.46299207 0.03307298 -0.06910974
-0.12044126 0.3221958 0.20274988 -0.034471177 0.2435648 0.10355987 0.4088722 0.18115692
0.33935454 0.1969779 0.32964075 0.13774927 0.31811535 0.4568842 0.24373585 0.20207857
-0.04779343 0.5518215 0.40298843 0.13156497 -0.08929989 0.26226485 -0.041201755 0.088392146
0.12345357 -0.18292196 0.45963827 0.2505173 0.5072906 -0.10072593 0.4160147 0.25706556
0.24018186 0.18533973 0.34278077 -0.03086688 -0.016170789 0.1625495 0.46165243 0.03003081
0.4102871 -0.01815502 0.16959162 0.21003807 0.2422146 -0.093619786 0.5225246 0.1420238
0.44964308 0.37113202 0.31901777 -0.01791262 -0.001153392 0.25811592 0.06913457 -0.012131775
0.33784613 0.50365293 0.49112666 0.23710476 0.0035313966 0.007946664 0.4101694 -0.106901936
0.6197004 0.3611796 0.43892714 0.60261405 -0.082568824 0.4920729 -0.13719007 0.28340355
0.10157653 0.11951376 -0.022392591 0.29780725 0.267608 0.35713658 0.1134545 0.37792012
0.35720736 0.07231509 0.053232096 0.3970535 0.24325432 0.51329076 0.16995646 0.34307173
-0.049370997 0.4910185 0.3137405 0.3354669 -0.013858742 0.23045455 0.10549305 0.15377639
0.39057302 0.16488439 0.26841432 0.3348418 -0.0871845 0.21226567 0.46639824 -0.03601493
0.40936348 0.330561 0.38347334 0.43563667 0.20190048 0.35448593 0.24268365 0.27671185
-0.07078521 0.15202074 0.31838426 0.40875065 0.42912808 0.32961166 -0.086201616 -0.10510458
-0.12335797 0.4316523 0.33239108 -0.08735102 -0.031879243 0.33051986 0.5622665 -0.0027075636
0.26940012 0.35066834 0.16918927 0.32711646 0.47818744 -0.06464531 0.15363035 -0.20122331
0.4045065 0.25636733 0.20494394 0.13087618 0.22886124 -0.07808592 0.49869967 -0.077831104
0.21498495 0.012776079 0.44583863 -0.18980704 0.1831006 0.54273033 0.12386352 0.03030346

convs.1.lin_r.weight f4 [256, 256]
00000000: ac77 a83d 69ef 7fbe 4e36 1c3e dbfc b2bd
00000010: b6a3 f2bd b6a2 a7bd 0206 77be eb02 75be
00000020: c6bc a5bd fd74 0d3e 3ed5 5ebe cfc5 3dbd
00000030: d3eb f4bb 7278 8dbd 2624 95be 846f 10be
00000040: 448c da3d bc08 2c3e 5138 e2bd 3dd2 9cbd
00000050: 650a 9b3c ce02 3cbe 2631 b2bd f72a 1cbc
00000060: e941 053e fd1b 6fbe efb7 16bc 7454 023e
00000070: 0491 d8bd 07b6 ba3d c35a 74bd 1903 973c
00000080: 7936 883c e944 02bd dc7a f8bd 6701 8dbd
00000090: eddf 0abe 56ae 4bbe bf2a a0bd ab67 93bd
000000a0: 2437 86be 9515 473e a499 26bd 88f0 633d
000000b0: 038c 983d 8463 34be ead0 91be 87aa 133d
000000c0: 81d4 a23e 8145 d83d 7792 423c 9a74 c8ba
000000d0: d292 9bbe 6848 5a3d f95b a4bc e5ba b1bd
000000e0: c487 66bd a481 9cbd c8f0 91bd de46 503e
000000f0: 6649 433e e794 543d a495 73bd 6669 4cbe
00000100: 26d2 91be 262e c4bd bf9e d3bd 100a 113d
00000110: 4a1c 45be 1775 a1bb 0e30 29bd 0a78 00be
00000120: f7e6 82be 41d7 31bd 4f4f 23bd bf74 8bbd
00000130: 7811 43be 45cc 4cbe 0f6c 473e 937d febd
00000140: ee9b ea3c f620 993d 2204 7fbe ad69 7cbe
00000150: fba9 a53e c472 1dbe 26aa 5bbe d31c 04be
00000160: 3340 aebc bfcb 563e e1e3 01be eeb0 8a3d
00000170: bc4e 50be efee a7bd 6c6a 2dbb b6ee 90be
00000180: 7d95 84bd 4ba7 943d fa22 5dbe 4503 99be
00000190: 013f 01bc f7ee 18be 93e0 a33d 94d9 2bbd
000001a0: 90da 45be 4cb9 d3bc 1f04 e3bd b3b6 bd3c
000001b0: 3ccc 2cbc 29a7 0cbe 5461 5fbe 56b7 dabd
000001c0: bbd2 12bd c972 82bd 52a9 c73c 2c2d 113d
000001d0: e41e c33e 550d b43c 63c0 82be 21d5 4f3c
000001e0: de0f c0bd 2aff d6bd e21d 513d 4f42 abbd
000001f0: c943 1abc cc2c a1be d459 f33c 8a2e dc3d
00000200: 0db1 cabc 52f0 05bd 26c8 f8bd ac3b 663e
00000210: 7826 03be 24f8 7cbd 3a58 e8bc ebd5 e2bd
00000220: c520 dabd 158e 1abd 2931 94be 0d34 1c3e
00000230: e59f e53d 74eb 99be c1f4 13bc d6da 953c
00000240: 8902 abbd 1d6d 03be 41ed 313e 9b6a 45bd
00000250: 4ea7 41be 630e 683e 4e21 3dbe b237 2fbe
00000260: a302 623c 289f debe 7ada 913d afd7 423e
00000270: 25d5 b3bd aa1c 5cbe 5df3 523c 77b9 153d
00000280: ab88 cebb d398 63be d1b2 dc3d 588d 593e
00000290: e22a eabc 4015 dc3d 79a2 1abd f666 15bd
000002a0: c438 663e 20ce 9dbd c218 87bd d09a 18bd
000002b0: 2ced 3cbe 29aa 053d 94f5 8bbd e0cc 8dbe
000002c0: 4b06 74be bcb9 9abd 179b b0bd 606c a7bd
000002d0: dfdf a3bc dcc0 143e 8490 223e a25d 2bbe
000002e0: 1c4d 17be a206 883e 6d44 adbd 2373 073e
000002f0: 7277 763d f228 bc3e 824d 35bd 9f55 86bd
00000300: c7ce 14bd 4ca8 6dbc b96c 45be 538f 033e
00000310: 15b4 6a3d 7876 b63c f6f8 0ebe 4a76 753c
00000320: 6670 d7bc d870 21bd 58e6 3abe 7f83 d4bc
00000330: 1ae3 6e3e 9bee e8bc 7640 28be 7220 0dbe
00000340: 8106 92bd c8cc 9dbd 2d7d fab8 652b 6b3d
00000350: 8b10 c83d 8b54 08be d34f 68be f33e 0abd
00000360: c597 a5bd f3d5 1dbe 2be5 23be 0ace 9d3e
00000370: fe97 023e 339f b0bd a539 aa3c 49a2 92bd
00000380: f680 3fbe 5a8e dfbc 9f92 9abd c56a 2fbe
00000390: 911d 52bd ce6f c7be 2455 3b3e e186 253d
000003a0: b1a4 643d 1bf3 563d 8674 8ebc 4702 1e3e
000003b0: 0a0d 01be 0508 cd3d 2931 60bd 0eae 99be
000003c0: ca0f 40be 24ff fcbd c1ae ebbc 6795 4abe
000003d0: 295e 21bd afce 41bd 0e20 afbd a83a 20bd
000003e0: aafd 73be 0410 94bd 4c7b 0cbe 5593 21be
000003f0: b6ac fcbc f548 4fbe 408c 53be e140 843d
0.082259506 -0.24993671 0.1525509 -0.087396346 -0.11847632 -0.081853315 -0.24123386 -0.23926894
-0.08092646 0.13814159 -0.21761033 -0.046331223 -0.0074744015 -0.06907739 -0.29129142 -0.1410504
0.10671285 0.16800207 -0.11045898 -0.07657287 0.018925855 -0.18360445 -0.087007806 -0.009531728
0.13013424 -0.2335052 -0.009199127 0.12727529 -0.105745345 0.0911675 -0.05965687 0.018434094
0.016627537 -0.031804 -0.121328086 -0.06885033 -0.13561983 -0.19890723 -0.07820653 -0.071975075
-0.26213944 0.19441827 -0.040673867 0.05564931 0.0744858 -0.17616087 -0.284797 0.0360513
0.31802753 0.10560132 0.01187574 -0.0015293539 -0.30385453 0.05329171 -0.020063387 -0.086782254
-0.05628182 -0.076419145 -0.071260035 0.20339534 0.19070968 0.051899817 -0.05946888 -0.19962081
-0.28480643 -0.095791146 -0.10333013 0.035409987 -0.19249073 -0.0049272883 -0.041305594 -0.12545791
-0.25566837 -0.043418173 -0.039870556 -0.06809377 -0.19049633 -0.19999798 0.19474815 -0.12426295
0.028638806 0.0747699 -0.2490392 -0.24649687 0.32356247 -0.15375811 -0.21451625 -0.1290162
-0.021270847 0.2097616 -0.12684585 0.06772028 -0.20342535 -0.0819987 -0.0026461137 -0.28307122
-0.06473825 0.07258471 -0.21595374 -0.29885307 -0.007888556 -0.14934908 0.080018185 -0.041955546
-0.19321656 -0.025845192 -0.110847704 0.023158407 -0.01054674 -0.13735642 -0.21814471 -0.106795
-0.0358455 -0.0636955 0.02437273 0.03544347 0.38109505 0.021979013 -0.25537404 0.012685091
-0.093780264 -0.104978874 0.05105389 -0.08362257 -0.009415575 -0.3147949 0.02970592 0.10751064
-0.024742628 -0.03269989 -0.1214755 0.224837 -0.12807643 -0.061760083 -0.028362382 -0.11075958
-0.106507815 -0.037733156 -0.28943756 0.15254231 0.11212138 -0.3006245 -0.009030522 0.018292826
-0.08350093 -0.12834592 0.17375661 -0.04819737 -0.18911478 0.22661738 -0.18469736 -0.1711109
0.013794574 -0.43480802 0.07121749 0.1902759 -0.087808885 -0.2149531 0.012875405 0.036553826
-0.006302913 -0.22226267 0.10776294 0.21245325 -0.028584901 0.107462406 -0.037752602 -0.036475144
0.22482592 -0.07705331 -0.06596519 -0.037257016 -0.18449849 0.03263298 -0.0683395 -0.2769537
-0.23830526 -0.07554957 -0.08623331 -0.08174968 -0.020004211 0.14526695 0.15875441 -0.16734937
-0.14775509 0.2656756 -0.08460317 0.13227515 0.060172506 0.3674999 -0.04426337 -0.065593
-0.03633001 -0.014505457 -0.19279756 0.12847643 0.057300646 0.022273287 -0.13962159 0.014981816
-0.026298713 -0.039414257 -0.18251932 -0.025941608 0.2332882 -0.028434088 -0.1643084 -0.13781908
-0.07130147 -0.077050745 -0.00011944245 0.05741443 0.0976878 -0.133135 -0.226867 -0.03375144
-0.08085588 -0.15413646 -0.1600539 0.30821258 0.12753293 -0.08624115 0.02077944 -0.0715986
-0.18701538 -0.027289558 -0.07547497 -0.17130573 -0.051297728 -0.38952488 0.18294197 0.040411834
0.055821124 0.052477937 -0.017389547 0.15430556 -0.1260263 0.10011295 -0.054734383 -0.30015606
-0.18756023 -0.12353352 -0.028769853 -0.19783555 -0.03939644 -0.04731625 -0.08551036 -0.03911844
-0.23827234 -0.07229617 -0.13718909 -0.15778859 -0.030844074 -0.20242675 -0.2065897 0.06457687

convs.2.lin_l.weight f4 [47, 256]
00000000: 3f1d 0dbb cef5 193d ed8b 1bbd 7e96 8a3c
00000010: 98d4 5b3d 9d94 e83b bf45 ab3a ede1 50bd
00000020: e295 e23d 7a4e 27be c472 913d 0e51 53bd
00000030: a426 97be 1941 01be 1a34 10be fc2b 07be
00000040: 06d5 093e 736e 15be a5e8 443e 22a7 e6bd
00000050: 1480 e93d 9985 983d ff8c e53d c130 a73d
00000060: 9343 083e 7482 d1bd 6fe8 d2bd 1fd1 c5bd
00000070: d13a 6fbc b688 bdbc 964c a2bd 9dec 2abd
00000080: 98de ddbd ae73 1e3e fa9b cfbe 1630 50bd
00000090: 66a5 84be eaa4 a53c 41f2 733d 5d43 203e
000000a0: 19c0 a6bd 9d67 e03c 3190 25be 10dc ae3c
000000b0: 3662 a83b f2e6 f638 9163 753d a12f aa3d
000000c0: 1633 13be 1087 34bd 8195 d83d 6a7d 1dbe
000000d0: 805b 13be ecad 9ebc 1885 0e3e 9ced 0d3e
000000e0: 4979 f53c 80c1 2ebd ec70 61be c504 d1bc
000000f0: 40e2 473e a990 523d 3197 323d 8509 92be
00000100: 1b6f ddbd 5841 a9bd 4f7c 89bb 6870 3fbd
00000110: 7950 593d ee1a 78be 12b4 69be c4c7 543d
00000120: 0c74 163e bdd5 84bd 2735 b3bd 6756 35bd
00000130: 74dd 6bbd efac 473e 1f16 573e b095 7cbd
00000140: e81a 98bb 6b6a e93c 9095 81bc bdd8 00be
00000150: 82d1 20bc 2e57 5fbd c47e 5abe b24c 4abd
00000160: 548d 7abd 601b af3d 87ca 3abe 916a c5bd
00000170: 57c8 6f3e 5f16 163e 62ff 5ebe b38c 0e3e
00000180: ff01 fabc 67b3 45bd bb86 ba3d 1fd5 2f3c
00000190: ff70 9abe 9e97 903e 6f96 ffbc b6bb 5d3c
000001a0: ac43 c8bd 871b 1b3e e490 91be bbe4 e2bd
000001b0: a6c5 b0bd e70f 853d ead1 373e 273b ccbd
000001c0: 6783 d7bd ff18 a3bd 13bd 0ebe 528e ca3c
000001d0: 3643 a83d 51eb 093e f56f 4aba 9c91 973e
000001e0: b65d 843d 3907 383e 3eb3 aabe 2a67 563d
000001f0: 3722 f0bc ed3e 9ebe dac5 3b3d 5aa6 fb3d
00000200: b114 983d f8ca 1ebc db76 5a3c 8f3e 87bd
00000210: 3154 b3be 0ad0 dabd adb4 48be 856f e43d
00000220: c366 61be 52f1 26be 2407 373e fd99 203a
00000230: 5bd4 9fbc 472d 623d b381 623e febd d6bc
00000240: 6aa9 a4be 31b7 7f3d 4e11 403d 3f61 bc3d
00000250: 6910 17bd 9887 93bc 8198 c6bd 0b97 b5bd
00000260: b3b6 8abd ed22 263e c471 b938 0b54 5a3d
00000270: f19d 8bbb 16ab 87be 079e 91bd d164 d23a
00000280: 731a 393e fc93 1a3e 97cc d9bd c1ed 4a3d
00000290: 6bdb 733d 84ab 4e3d 0ca5 833b 7bab f03c
000002a0: ec1b a1be af38 cb3d 692b 71be 7c7a 8bbe
000002b0: 5e1f 193d 036c 48be 682a 9abd 74be debc
000002c0: 7298 2d3d e0ba 083e 26d3 6a3c 2663 493d
000002d0: 6f36 d23c 4716 6a3e 38ff 6dbd afd2 523e
000002e0: 850f eebc 5dee 7bbd 677d fa3b e0ad db3d
000002f0: 0da7 023e dd4a a9bd 450b b7be 5f94 c43d
00000300: ed7f 4a3d 894c c03d 6e67 e43d c242 953b
00000310: 988d 8e3d 64fe fcbd 39c5 b9bd 0c7d 00bd
00000320: fcae 073d a18e 36bd dfb0 0c3e 0c76 06be
00000330: 2ca6 3abc 9000 11be fb1b 383e db36 803d
00000340: 0aec 63bd 2d8e aabd fcb7 3abe 823a 233e
00000350: 7a93 23bb 2678 cb3d 3c02 cfbd f40e 6bbd
00000360: 145f 3d3c 9abd abbe 9eca 283e 540d 0c3e
00000370: d41f fc3d 8c95 883e 0823 813d c7dc babd
00000380: ddde 093d 17d2 90be 656f 06be bf34 a23c
00000390: 2044 7b3c f5ae eabc 36e2 a3bc fa52 2dbd
000003a0: 714c 78bc 52f4 3f3e 0d1b 4f3c 177f f83c
000003b0: 9177 d1bc b57a 273c 1def 343d b117 8d3e
000003c0: d2ac 08be 26a2 23be 8d2b 11be f67e 3bbd
000003d0: a2b0 173e a9c3 25bd ab27 063e cbe7 893d
000003e0: 3e6f 483e 219d 2cbd 516f f0bd 72b8 27be
000003f0: 0047 723d 647f 4b3e 377e e93d eea3 473d
-0.0021532325 0.037587933 -0.03797524 0.016917463 0.053669542 0.007097794 0.0013067051 -0.05099671
0.11063744 -0.1633853 0.07101968 -0.05159097 -0.29521668 -0.12622489 -0.14082375 -0.13200372
0.13460168 -0.14592914 0.19229372 -0.11262347 0.11401382 0.07447357 0.112085335 0.08163596
0.13307028 -0.1022996 -0.102982394 -0.09659027 -0.014601425 -0.023136478 -0.07924764 -0.04172956
-0.10833472 0.15473816 -0.40548688 -0.05082711 -0.2590744 0.020220239 0.059557203 0.15650697
-0.081421085 0.027393157 -0.16168286 0.021345168 0.005138661 0.00011773211 0.059909407 0.08309866
-0.14374956 -0.04407412 0.105753906 -0.15379873 -0.14390373 -0.019370042 0.13917959 0.13860172
0.02996506 -0.042665005 -0.22015733 -0.02551497 0.19519901 0.05140749 0.04360122 -0.28522888
-0.10812207 -0.082644165 -0.004195727 -0.04673806 0.05305526 -0.24229023 -0.22822598 0.051948324
0.14692706 -0.0648608 -0.087503724 -0.044271853 -0.05758424 0.19499563 0.21004532 -0.06166619
-0.0046418793 0.028493127 -0.015818387 -0.12582679 -0.009815576 -0.0545265 -0.2133742 -0.04938955
-0.061169937 0.08550143 -0.1824132 -0.096394666 0.23416267 0.14656971 -0.21777108 0.1392086
-0.03051853 -0.048266795 0.09107729 0.010731964 -0.30164334 0.28240675 -0.031199662 0.013533523
-0.097785324 0.1514722 -0.28430855 -0.11078783 -0.086314484 0.06497174 0.1795117 -0.0997222
-0.1052311 -0.07963752 -0.13939314 0.024726067 0.082159445 0.13468672 -0.00077223714 0.2960328
0.064631864 0.17971505 -0.33339876 0.05234448 -0.02931319 -0.30907384 0.045842983 0.122875884
0.074258216 -0.009691946 0.013334001 -0.06603729 -0.3502517 -0.106842116 -0.19600172 0.11154083
-0.22011857 -0.16302994 0.17873818 0.00061264617 -0.019510439 0.05521896 0.22119789 -0.026213642
-0.32160503 0.062430564 0.046891503 0.09198236 -0.036880884 -0.018008992 -0.096970566 -0.088667
-0.06773128 0.1622426 8.842678e-05 0.053302806 -0.0042607714 -0.26497716 -0.071102194 0.0016051774
0.18076496 0.15095514 -0.106347255 0.049543146 0.059535425 0.05045654 0.004017478 0.029378643
-0.31466615 0.09922921 -0.23551716 -0.27241886 0.03738343 -0.19572453 -0.075276196 -0.027190425
0.04238171 0.13352537 0.014332568 0.04916682 0.025660722 0.2286006 -0.058104724 0.20588182
-0.029060135 -0.061506618 0.0076443437 0.107265234 0.12759037 -0.08266232 -0.35750785 0.09598612
0.049438406 0.09389598 0.1115254 0.0045550773 0.069606006 -0.12353209 -0.0907082 -0.031369254
0.033125862 -0.044569615 0.13739346 -0.13130969 -0.0113921575 -0.14160371 0.17979424 0.06260463
-0.055645026 -0.08327899 -0.18234247 0.15940288 -0.002495973 0.09935026 -0.10107848 -0.057387307
0.011558313 -0.33543092 0.16483542 0.1367696 0.12310758 0.26676595 0.0630551 -0.09124141
0.033659805 -0.28285286 -0.13128431 0.019800542 0.0153360665 -0.02864788 -0.020005327 -0.04231546
-0.015154944 0.18745545 0.012640727 0.030334039 -0.025569709 0.010222127 0.04417335 0.27557138
-0.13347176 -0.15979823 -0.1417677 -0.045775376 0.14813474 -0.0404698 0.1310107 0.06733664
0.19573686 -0.042142037 -0.11739982 -0.16378954 0.059149742 0.19872814 0.11401027 0.04874032

convs.2.lin_l.bias f4 [47]
00000000: 8d62 b93d 29cd 393e 154a 4a3d be2f 093e
00000010: 4cb8 23bb e1a0 143c 388a 853e 13ef da3d
00000020: 3962 2c3f e381 d7bc 8a3a a23c 6805 8d3d
00000030: 11e4 32be 0985 1dbe 5158 c6be fd7b e73e
00000040: d39e 5abd b518 513d 943f 96be f5c7 7fbd
00000050: 976e ba3d 46e5 ffbd 1e04 b6be 33f1 d7be
00000060: 19af 28bf 02e4 4bbd a898 afbe 3896 c5bd
00000070: 811c edbe df52 2d3b e552 153e 17f2 eabe
00000080: 444b b3be b13b 9dbd 9a1a 62be 21f4 80be
00000090: bbbc 10be af7c 46be 924d 90bd 0a75 81bd
000000a0: fabc f9bd 3b63 24be 22fb d3bd 3afe 05be
000000b0: 8fbb 04be 8fea 2abe 9869 5ebd
0.09052 0.18144669 0.049387056 0.13397118 -0.0024981676 0.00907156 0.26082015 0.10690131
0.67337376 -0.026307052 0.019803304 0.06885797 -0.17469813 -0.1538278 -0.38739255 0.45211783
-0.053374123 0.051048953 -0.2934538 -0.062446553 0.091031246 -0.12494902 -0.35550016 -0.42176208
-0.6589218 -0.049777992 -0.34296155 -0.096477926 -0.4631081 0.00264471 0.14582403 -0.45887825
-0.3501836 -0.07677401 -0.2208046 -0.25186256 -0.14134495 -0.193835 -0.07046045 -0.063211516
-0.121942475 -0.16053478 -0.10350634 -0.13085261 -0.12962173 -0.1669104 -0.05429992
